…
  EXPECTED_RESULTS: []
  KEYPOINT_OKS_SIGMAS: []
  LEXICON_TYPE: 1
  PRECISE_BN:
    ENABLED: False
    NUM_ITER: 200
  USE_LEXICON: False
  WEIGHTED_EDIT_DIST: False
VERSION: 2
VIS_PERIOD: 0
[08/17 00:55:10] detectron2 INFO: Full config saved to output/R50/ArT/finetune/ic15_art_imgsize_generic/config.yaml
[08/17 00:55:10] d2.utils.env INFO: Using a generated random seed 13033743
[08/17 00:55:16] d2.engine.defaults INFO: Model:
TransformerPureDetector(
  (dptext_detr): DPText_DETR(
    (backbone): Joiner(
      (0): MaskedBackbone(
        (backbone): ResNet(
          (stem): BasicStem(
            (conv1): Conv2d(
              3, 64, kernel_size=(7, 7), stride=(2, 2), padding=(3, 3), bias=False
              (norm): FrozenBatchNorm2d(num_features=64, eps=1e-05)
            )
          )
          (res2): Sequential(
            (0): BottleneckBlock(
              (shortcut): Conv2d(
                64, 256, kernel_size=(1, 1), stride=(1, 1), bias=False
                (norm): FrozenBatchNorm2d(num_features=256, eps=1e-05)
              )
              (conv1): Conv2d(
                64, 64, kernel_size=(1, 1), stride=(1, 1), bias=False
                (norm): FrozenBatchNorm2d(num_features=64, eps=1e-05)
              )
              (conv2): Conv2d(
                64, 64, kernel_size=(3, 3), stride=(1, 1), padding=(1, 1), bias=False
                (norm): FrozenBatchNorm2d(num_features=64, eps=1e-05)
              )
              (conv3): Conv2d(
                64, 256, kernel_size=(1, 1), stride=(1, 1), bias=False
                (norm): FrozenBatchNorm2d(num_features=256, eps=1e-05)
              )
            )
            (1): BottleneckBlock(
              (conv1): Conv2d(
                256, 64, kernel_size=(1, 1), stride=(1, 1), bias=False
                (norm): FrozenBatchNorm2d(num_features=64, eps=1e-05)
              )
              (conv2): Conv2d(
                64, 64, kernel_size=(3, 3), stride=(1, 1), padding=(1, 1), bias=False
                (norm): FrozenBatchNorm2d(num_features=64, eps=1e-05)
              )
              (conv3): Conv2d(
                64, 256, kernel_size=(1, 1), stride=(1, 1), bias=False
                (norm): FrozenBatchNorm2d(num_features=256, eps=1e-05)
              )
            )
            (2): BottleneckBlock(
              (conv1): Conv2d(
                256, 64, kernel_size=(1, 1), stride=(1, 1), bias=False
                (norm): FrozenBatchNorm2d(num_features=64, eps=1e-05)
              )
              (conv2): Conv2d(
                64, 64, kernel_size=(3, 3), stride=(1, 1), padding=(1, 1), bias=False
                (norm): FrozenBatchNorm2d(num_features=64, eps=1e-05)
              )
              (conv3): Conv2d(
                64, 256, kernel_size=(1, 1), stride=(1, 1), bias=False
                (norm): FrozenBatchNorm2d(num_features=256, eps=1e-05)
              )
            )
          )
          (res3): Sequential(
            (0): BottleneckBlock(
              (shortcut): Conv2d(
                256, 512, kernel_size=(1, 1), stride=(2, 2), bias=False
                (norm): FrozenBatchNorm2d(num_features=512, eps=1e-05)
              )
              (conv1): Conv2d(
                256, 128, kernel_size=(1, 1), stride=(1, 1), bias=False
                (norm): FrozenBatchNorm2d(num_features=128, eps=1e-05)
              )
              (conv2): Conv2d(
                128, 128, kernel_size=(3, 3), stride=(2, 2), padding=(1, 1), bias=False
                (norm): FrozenBatchNorm2d(num_features=128, eps=1e-05)
              )
              (conv3): Conv2d(
                128, 512, kernel_size=(1, 1), stride=(1, 1), bias=False
                (norm): FrozenBatchNorm2d(num_features=512, eps=1e-05)
              )
            )
            (1): BottleneckBlock(
              (conv1): Conv2d(
                512, 128, kernel_size=(1, 1), stride=(1, 1), bias=False
                (norm): FrozenBatchNorm2d(num_features=128, eps=1e-05)
              )
              (conv2): Conv2d(
                128, 128, kernel_size=(3, 3), stride=(1, 1), padding=(1, 1), bias=False
                (norm): FrozenBatchNorm2d(num_features=128, eps=1e-05)
              )
              (conv3): Conv2d(
                128, 512, kernel_size=(1, 1), stride=(1, 1), bias=False
                (norm): FrozenBatchNorm2d(num_features=512, eps=1e-05)
              )
            )
            (2): BottleneckBlock(
              (conv1): Conv2d(
                512, 128, kernel_size=(1, 1), stride=(1, 1), bias=False
                (norm): FrozenBatchNorm2d(num_features=128, eps=1e-05)
              )
              (conv2): Conv2d(
                128, 128, kernel_size=(3, 3), stride=(1, 1), padding=(1, 1), bias=False
                (norm): FrozenBatchNorm2d(num_features=128, eps=1e-05)
              )
              (conv3): Conv2d(
                128, 512, kernel_size=(1, 1), stride=(1, 1), bias=False
                (norm): FrozenBatchNorm2d(num_features=512, eps=1e-05)
              )
            )
            (3): BottleneckBlock(
              (conv1): Conv2d(
                512, 128, kernel_size=(1, 1), stride=(1, 1), bias=False
                (norm): FrozenBatchNorm2d(num_features=128, eps=1e-05)
              )
              (conv2): Conv2d(
                128, 128, kernel_size=(3, 3), stride=(1, 1), padding=(1, 1), bias=False
                (norm): FrozenBatchNorm2d(num_features=128, eps=1e-05)
              )
              (conv3): Conv2d(
                128, 512, kernel_size=(1, 1), stride=(1, 1), bias=False
                (norm): FrozenBatchNorm2d(num_features=512, eps=1e-05)
              )
            )
          )
          (res4): Sequential(
            (0): BottleneckBlock(
              (shortcut): Conv2d(
                512, 1024, kernel_size=(1, 1), stride=(2, 2), bias=False
                (norm): FrozenBatchNorm2d(num_features=1024, eps=1e-05)
              )
              (conv1): Conv2d(
                512, 256, kernel_size=(1, 1), stride=(1, 1), bias=False
                (norm): FrozenBatchNorm2d(num_features=256, eps=1e-05)
              )
              (conv2): Conv2d(
                256, 256, kernel_size=(3, 3), stride=(2, 2), padding=(1, 1), bias=False
                (norm): FrozenBatchNorm2d(num_features=256, eps=1e-05)
              )
              (conv3): Conv2d(
                256, 1024, kernel_size=(1, 1), stride=(1, 1), bias=False
                (norm): FrozenBatchNorm2d(num_features=1024, eps=1e-05)
              )
            )
            (1): BottleneckBlock(
              (conv1): Conv2d(
                1024, 256, kernel_size=(1, 1), stride=(1, 1), bias=False
                (norm): FrozenBatchNorm2d(num_features=256, eps=1e-05)
              )
              (conv2): Conv2d(
                256, 256, kernel_size=(3, 3), stride=(1, 1), padding=(1, 1), bias=False
                (norm): FrozenBatchNorm2d(num_features=256, eps=1e-05)
              )
              (conv3): Conv2d(
                256, 1024, kernel_size=(1, 1), stride=(1, 1), bias=False
                (norm): FrozenBatchNorm2d(num_features=1024, eps=1e-05)
              )
            )
            (2): BottleneckBlock(
              (conv1): Conv2d(
                1024, 256, kernel_size=(1, 1), stride=(1, 1), bias=False
                (norm): FrozenBatchNorm2d(num_features=256, eps=1e-05)
              )
              (conv2): Conv2d(
                256, 256, kernel_size=(3, 3), stride=(1, 1), padding=(1, 1), bias=False
                (norm): FrozenBatchNorm2d(num_features=256, eps=1e-05)
              )
              (conv3): Conv2d(
                256, 1024, kernel_size=(1, 1), stride=(1, 1), bias=False
                (norm): FrozenBatchNorm2d(num_features=1024, eps=1e-05)
              )
            )
            (3): BottleneckBlock(
              (conv1): Conv2d(
                1024, 256, kernel_size=(1, 1), stride=(1, 1), bias=False
                (norm): FrozenBatchNorm2d(num_features=256, eps=1e-05)
              )
              (conv2): Conv2d(
                256, 256, kernel_size=(3, 3), stride=(1, 1), padding=(1, 1), bias=False
                (norm): FrozenBatchNorm2d(num_features=256, eps=1e-05)
              )
              (conv3): Conv2d(
                256, 1024, kernel_size=(1, 1), stride=(1, 1), bias=False
                (norm): FrozenBatchNorm2d(num_features=1024, eps=1e-05)
              )
            )
            (4): BottleneckBlock(
              (conv1): Conv2d(
                1024, 256, kernel_size=(1, 1), stride=(1, 1), bias=False
                (norm): FrozenBatchNorm2d(num_features=256, eps=1e-05)
              )
              (conv2): Conv2d(
                256, 256, kernel_size=(3, 3), stride=(1, 1), padding=(1, 1), bias=False
                (norm): FrozenBatchNorm2d(num_features=256, eps=1e-05)
              )
              (conv3): Conv2d(
                256, 1024, kernel_size=(1, 1), stride=(1, 1), bias=False
                (norm): FrozenBatchNorm2d(num_features=1024, eps=1e-05)
              )
            )
            (5): BottleneckBlock(
              (conv1): Conv2d(
                1024, 256, kernel_size=(1, 1), stride=(1, 1), bias=False
                (norm): FrozenBatchNorm2d(num_features=256, eps=1e-05)
              )
              (conv2): Conv2d(
                256, 256, kernel_size=(3, 3), stride=(1, 1), padding=(1, 1), bias=False
                (norm): FrozenBatchNorm2d(num_features=256, eps=1e-05)
              )
              (conv3): Conv2d(
                256, 1024, kernel_size=(1, 1), stride=(1, 1), bias=False
                (norm): FrozenBatchNorm2d(num_features=1024, eps=1e-05)
              )
            )
          )
          (res5): Sequential(
            (0): BottleneckBlock(
              (shortcut): Conv2d(
                1024, 2048, kernel_size=(1, 1), stride=(2, 2), bias=False
                (norm): FrozenBatchNorm2d(num_features=2048, eps=1e-05)
              )
              (conv1): Conv2d(
                1024, 512, kernel_size=(1, 1), stride=(1, 1), bias=False
                (norm): FrozenBatchNorm2d(num_features=512, eps=1e-05)
              )
              (conv2): Conv2d(
                512, 512, kernel_size=(3, 3), stride=(2, 2), padding=(1, 1), bias=False
                (norm): FrozenBatchNorm2d(num_features=512, eps=1e-05)
              )
              (conv3): Conv2d(
                512, 2048, kernel_size=(1, 1), stride=(1, 1), bias=False
                (norm): FrozenBatchNorm2d(num_features=2048, eps=1e-05)
              )
            )
            (1): BottleneckBlock(
              (conv1): Conv2d(
                2048, 512, kernel_size=(1, 1), stride=(1, 1), bias=False
                (norm): FrozenBatchNorm2d(num_features=512, eps=1e-05)
              )
              (conv2): Conv2d(
                512, 512, kernel_size=(3, 3), stride=(1, 1), padding=(1, 1), bias=False
                (norm): FrozenBatchNorm2d(num_features=512, eps=1e-05)
              )
              (conv3): Conv2d(
                512, 2048, kernel_size=(1, 1), stride=(1, 1), bias=False
                (norm): FrozenBatchNorm2d(num_features=2048, eps=1e-05)
              )
            )
            (2): BottleneckBlock(
              (conv1): Conv2d(
                2048, 512, kernel_size=(1, 1), stride=(1, 1), bias=False
                (norm): FrozenBatchNorm2d(num_features=512, eps=1e-05)
              )
              (conv2): Conv2d(
                512, 512, kernel_size=(3, 3), stride=(1, 1), padding=(1, 1), bias=False
                (norm): FrozenBatchNorm2d(num_features=512, eps=1e-05)
              )
              (conv3): Conv2d(
                512, 2048, kernel_size=(1, 1), stride=(1, 1), bias=False
                (norm): FrozenBatchNorm2d(num_features=2048, eps=1e-05)
              )
            )
          )
        )
      )
      (1): PositionalEncoding2D()
    )
    (ctrl_point_embed): Embedding(16, 256)
    (transformer): DeformableTransformer_Det(
      (encoder): DeformableTransformerEncoder(
        (layers): ModuleList(
          (0): DeformableTransformerEncoderLayer(
            (self_attn): MSDeformAttn(
              (sampling_offsets): Linear(in_features=256, out_features=256, bias=True)
              (attention_weights): Linear(in_features=256, out_features=128, bias=True)
              (value_proj): Linear(in_features=256, out_features=256, bias=True)
              (output_proj): Linear(in_features=256, out_features=256, bias=True)
            )
            (dropout1): Dropout(p=0.1, inplace=False)
            (norm1): LayerNorm((256,), eps=1e-05, elementwise_affine=True)
            (linear1): Linear(in_features=256, out_features=1024, bias=True)
            (dropout2): Dropout(p=0.1, inplace=False)
            (linear2): Linear(in_features=1024, out_features=256, bias=True)
            (dropout3): Dropout(p=0.1, inplace=False)
            (norm2): LayerNorm((256,), eps=1e-05, elementwise_affine=True)
          )
          (1): DeformableTransformerEncoderLayer(
            (self_attn): MSDeformAttn(
              (sampling_offsets): Linear(in_features=256, out_features=256, bias=True)
              (attention_weights): Linear(in_features=256, out_features=128, bias=True)
              (value_proj): Linear(in_features=256, out_features=256, bias=True)
              (output_proj): Linear(in_features=256, out_features=256, bias=True)
            )
            (dropout1): Dropout(p=0.1, inplace=False)
            (norm1): LayerNorm((256,), eps=1e-05, elementwise_affine=True)
            (linear1): Linear(in_features=256, out_features=1024, bias=True)
            (dropout2): Dropout(p=0.1, inplace=False)
            (linear2): Linear(in_features=1024, out_features=256, bias=True)
            (dropout3): Dropout(p=0.1, inplace=False)
            (norm2): LayerNorm((256,), eps=1e-05, elementwise_affine=True)
          )
          (2): DeformableTransformerEncoderLayer(
            (self_attn): MSDeformAttn(
              (sampling_offsets): Linear(in_features=256, out_features=256, bias=True)
              (attention_weights): Linear(in_features=256, out_features=128, bias=True)
              (value_proj): Linear(in_features=256, out_features=256, bias=True)
              (output_proj): Linear(in_features=256, out_features=256, bias=True)
            )
            (dropout1): Dropout(p=0.1, inplace=False)
            (norm1): LayerNorm((256,), eps=1e-05, elementwise_affine=True)
            (linear1): Linear(in_features=256, out_features=1024, bias=True)
            (dropout2): Dropout(p=0.1, inplace=False)
            (linear2): Linear(in_features=1024, out_features=256, bias=True)
            (dropout3): Dropout(p=0.1, inplace=False)
            (norm2): LayerNorm((256,), eps=1e-05, elementwise_affine=True)
          )
          (3): DeformableTransformerEncoderLayer(
            (self_attn): MSDeformAttn(
              (sampling_offsets): Linear(in_features=256, out_features=256, bias=True)
              (attention_weights): Linear(in_features=256, out_features=128, bias=True)
              (value_proj): Linear(in_features=256, out_features=256, bias=True)
              (output_proj): Linear(in_features=256, out_features=256, bias=True)
            )
            (dropout1): Dropout(p=0.1, inplace=False)
            (norm1): LayerNorm((256,), eps=1e-05, elementwise_affine=True)
            (linear1): Linear(in_features=256, out_features=1024, bias=True)
            (dropout2): Dropout(p=0.1, inplace=False)
            (linear2): Linear(in_features=1024, out_features=256, bias=True)
            (dropout3): Dropout(p=0.1, inplace=False)
            (norm2): LayerNorm((256,), eps=1e-05, elementwise_affine=True)
          )
          (4): DeformableTransformerEncoderLayer(
            (self_attn): MSDeformAttn(
              (sampling_offsets): Linear(in_features=256, out_features=256, bias=True)
              (attention_weights): Linear(in_features=256, out_features=128, bias=True)
              (value_proj): Linear(in_features=256, out_features=256, bias=True)
              (output_proj): Linear(in_features=256, out_features=256, bias=True)
            )
            (dropout1): Dropout(p=0.1, inplace=False)
            (norm1): LayerNorm((256,), eps=1e-05, elementwise_affine=True)
            (linear1): Linear(in_features=256, out_features=1024, bias=True)
            (dropout2): Dropout(p=0.1, inplace=False)
            (linear2): Linear(in_features=1024, out_features=256, bias=True)
            (dropout3): Dropout(p=0.1, inplace=False)
            (norm2): LayerNorm((256,), eps=1e-05, elementwise_affine=True)
          )
          (5): DeformableTransformerEncoderLayer(
            (self_attn): MSDeformAttn(
              (sampling_offsets): Linear(in_features=256, out_features=256, bias=True)
              (attention_weights): Linear(in_features=256, out_features=128, bias=True)
              (value_proj): Linear(in_features=256, out_features=256, bias=True)
              (output_proj): Linear(in_features=256, out_features=256, bias=True)
            )
            (dropout1): Dropout(p=0.1, inplace=False)
            (norm1): LayerNorm((256,), eps=1e-05, elementwise_affine=True)
            (linear1): Linear(in_features=256, out_features=1024, bias=True)
            (dropout2): Dropout(p=0.1, inplace=False)
            (linear2): Linear(in_features=1024, out_features=256, bias=True)
            (dropout3): Dropout(p=0.1, inplace=False)
            (norm2): LayerNorm((256,), eps=1e-05, elementwise_affine=True)
          )
        )
      )
      (decoder): DeformableTransformerDecoder_Det(
        (layers): ModuleList(
          (0): DeformableTransformerDecoderLayer_Det(
            (attn_cross): MSDeformAttn(
              (sampling_offsets): Linear(in_features=256, out_features=256, bias=True)
              (attention_weights): Linear(in_features=256, out_features=128, bias=True)
              (value_proj): Linear(in_features=256, out_features=256, bias=True)
              (output_proj): Linear(in_features=256, out_features=256, bias=True)
            )
            (dropout_cross): Dropout(p=0.1, inplace=False)
            (norm_cross): LayerNorm((256,), eps=1e-05, elementwise_affine=True)
            (attn_intra): MultiheadAttention(
              (out_proj): NonDynamicallyQuantizableLinear(in_features=256, out_features=256, bias=True)
            )
            (circonv): CirConv(
              (conv): Conv1d(256, 256, kernel_size=(9,), stride=(1,))
              (relu): ReLU(inplace=True)
              (norm): BatchNorm1d(256, eps=1e-05, momentum=0.1, affine=True, track_running_stats=True)
            )
            (norm_fuse): LayerNorm((256,), eps=1e-05, elementwise_affine=True)
            (mlp_fuse): Linear(in_features=256, out_features=256, bias=True)
            (drop_path): DropPath(drop_prob=0.100)
            (norm_intra): LayerNorm((256,), eps=1e-05, elementwise_affine=True)
            (attn_inter): MultiheadAttention(
              (out_proj): NonDynamicallyQuantizableLinear(in_features=256, out_features=256, bias=True)
            )
            (dropout_inter): Dropout(p=0.1, inplace=False)
            (norm_inter): LayerNorm((256,), eps=1e-05, elementwise_affine=True)
            (linear1): Linear(in_features=256, out_features=1024, bias=True)
            (dropout3): Dropout(p=0.1, inplace=False)
            (linear2): Linear(in_features=1024, out_features=256, bias=True)
            (dropout4): Dropout(p=0.1, inplace=False)
            (norm3): LayerNorm((256,), eps=1e-05, elementwise_affine=True)
          )
          (1): DeformableTransformerDecoderLayer_Det(
            (attn_cross): MSDeformAttn(
              (sampling_offsets): Linear(in_features=256, out_features=256, bias=True)
              (attention_weights): Linear(in_features=256, out_features=128, bias=True)
              (value_proj): Linear(in_features=256, out_features=256, bias=True)
              (output_proj): Linear(in_features=256, out_features=256, bias=True)
            )
            (dropout_cross): Dropout(p=0.1, inplace=False)
            (norm_cross): LayerNorm((256,), eps=1e-05, elementwise_affine=True)
            (attn_intra): MultiheadAttention(
              (out_proj): NonDynamicallyQuantizableLinear(in_features=256, out_features=256, bias=True)
            )
            (circonv): CirConv(
              (conv): Conv1d(256, 256, kernel_size=(9,), stride=(1,))
              (relu): ReLU(inplace=True)
              (norm): BatchNorm1d(256, eps=1e-05, momentum=0.1, affine=True, track_running_stats=True)
            )
            (norm_fuse): LayerNorm((256,), eps=1e-05, elementwise_affine=True)
            (mlp_fuse): Linear(in_features=256, out_features=256, bias=True)
            (drop_path): DropPath(drop_prob=0.100)
            (norm_intra): LayerNorm((256,), eps=1e-05, elementwise_affine=True)
            (attn_inter): MultiheadAttention(
              (out_proj): NonDynamicallyQuantizableLinear(in_features=256, out_features=256, bias=True)
            )
            (dropout_inter): Dropout(p=0.1, inplace=False)
            (norm_inter): LayerNorm((256,), eps=1e-05, elementwise_affine=True)
            (linear1): Linear(in_features=256, out_features=1024, bias=True)
            (dropout3): Dropout(p=0.1, inplace=False)
            (linear2): Linear(in_features=1024, out_features=256, bias=True)
            (dropout4): Dropout(p=0.1, inplace=False)
            (norm3): LayerNorm((256,), eps=1e-05, elementwise_affine=True)
          )
          (2): DeformableTransformerDecoderLayer_Det(
            (attn_cross): MSDeformAttn(
              (sampling_offsets): Linear(in_features=256, out_features=256, bias=True)
              (attention_weights): Linear(in_features=256, out_features=128, bias=True)
              (value_proj): Linear(in_features=256, out_features=256, bias=True)
              (output_proj): Linear(in_features=256, out_features=256, bias=True)
            )
            (dropout_cross): Dropout(p=0.1, inplace=False)
            (norm_cross): LayerNorm((256,), eps=1e-05, elementwise_affine=True)
            (attn_intra): MultiheadAttention(
              (out_proj): NonDynamicallyQuantizableLinear(in_features=256, out_features=256, bias=True)
            )
            (circonv): CirConv(
              (conv): Conv1d(256, 256, kernel_size=(9,), stride=(1,))
              (relu): ReLU(inplace=True)
              (norm): BatchNorm1d(256, eps=1e-05, momentum=0.1, affine=True, track_running_stats=True)
            )
            (norm_fuse): LayerNorm((256,), eps=1e-05, elementwise_affine=True)
            (mlp_fuse): Linear(in_features=256, out_features=256, bias=True)
            (drop_path): DropPath(drop_prob=0.100)
            (norm_intra): LayerNorm((256,), eps=1e-05, elementwise_affine=True)
            (attn_inter): MultiheadAttention(
              (out_proj): NonDynamicallyQuantizableLinear(in_features=256, out_features=256, bias=True)
            )
            (dropout_inter): Dropout(p=0.1, inplace=False)
            (norm_inter): LayerNorm((256,), eps=1e-05, elementwise_affine=True)
            (linear1): Linear(in_features=256, out_features=1024, bias=True)
            (dropout3): Dropout(p=0.1, inplace=False)
            (linear2): Linear(in_features=1024, out_features=256, bias=True)
            (dropout4): Dropout(p=0.1, inplace=False)
            (norm3): LayerNorm((256,), eps=1e-05, elementwise_affine=True)
          )
          (3): DeformableTransformerDecoderLayer_Det(
            (attn_cross): MSDeformAttn(
              (sampling_offsets): Linear(in_features=256, out_features=256, bias=True)
              (attention_weights): Linear(in_features=256, out_features=128, bias=True)
              (value_proj): Linear(in_features=256, out_features=256, bias=True)
              (output_proj): Linear(in_features=256, out_features=256, bias=True)
            )
            (dropout_cross): Dropout(p=0.1, inplace=False)
            (norm_cross): LayerNorm((256,), eps=1e-05, elementwise_affine=True)
            (attn_intra): MultiheadAttention(
              (out_proj): NonDynamicallyQuantizableLinear(in_features=256, out_features=256, bias=True)
            )
            (circonv): CirConv(
              (conv): Conv1d(256, 256, kernel_size=(9,), stride=(1,))
              (relu): ReLU(inplace=True)
              (norm): BatchNorm1d(256, eps=1e-05, momentum=0.1, affine=True, track_running_stats=True)
            )
            (norm_fuse): LayerNorm((256,), eps=1e-05, elementwise_affine=True)
            (mlp_fuse): Linear(in_features=256, out_features=256, bias=True)
            (drop_path): DropPath(drop_prob=0.100)
            (norm_intra): LayerNorm((256,), eps=1e-05, elementwise_affine=True)
            (attn_inter): MultiheadAttention(
              (out_proj): NonDynamicallyQuantizableLinear(in_features=256, out_features=256, bias=True)
            )
            (dropout_inter): Dropout(p=0.1, inplace=False)
            (norm_inter): LayerNorm((256,), eps=1e-05, elementwise_affine=True)
            (linear1): Linear(in_features=256, out_features=1024, bias=True)
            (dropout3): Dropout(p=0.1, inplace=False)
            (linear2): Linear(in_features=1024, out_features=256, bias=True)
            (dropout4): Dropout(p=0.1, inplace=False)
            (norm3): LayerNorm((256,), eps=1e-05, elementwise_affine=True)
          )
          (4): DeformableTransformerDecoderLayer_Det(
            (attn_cross): MSDeformAttn(
              (sampling_offsets): Linear(in_features=256, out_features=256, bias=True)
              (attention_weights): Linear(in_features=256, out_features=128, bias=True)
              (value_proj): Linear(in_features=256, out_features=256, bias=True)
              (output_proj): Linear(in_features=256, out_features=256, bias=True)
            )
            (dropout_cross): Dropout(p=0.1, inplace=False)
            (norm_cross): LayerNorm((256,), eps=1e-05, elementwise_affine=True)
            (attn_intra): MultiheadAttention(
              (out_proj): NonDynamicallyQuantizableLinear(in_features=256, out_features=256, bias=True)
            )
            (circonv): CirConv(
              (conv): Conv1d(256, 256, kernel_size=(9,), stride=(1,))
              (relu): ReLU(inplace=True)
              (norm): BatchNorm1d(256, eps=1e-05, momentum=0.1, affine=True, track_running_stats=True)
            )
            (norm_fuse): LayerNorm((256,), eps=1e-05, elementwise_affine=True)
            (mlp_fuse): Linear(in_features=256, out_features=256, bias=True)
            (drop_path): DropPath(drop_prob=0.100)
            (norm_intra): LayerNorm((256,), eps=1e-05, elementwise_affine=True)
            (attn_inter): MultiheadAttention(
              (out_proj): NonDynamicallyQuantizableLinear(in_features=256, out_features=256, bias=True)
            )
            (dropout_inter): Dropout(p=0.1, inplace=False)
            (norm_inter): LayerNorm((256,), eps=1e-05, elementwise_affine=True)
            (linear1): Linear(in_features=256, out_features=1024, bias=True)
            (dropout3): Dropout(p=0.1, inplace=False)
            (linear2): Linear(in_features=1024, out_features=256, bias=True)
            (dropout4): Dropout(p=0.1, inplace=False)
            (norm3): LayerNorm((256,), eps=1e-05, elementwise_affine=True)
          )
          (5): DeformableTransformerDecoderLayer_Det(
            (attn_cross): MSDeformAttn(
              (sampling_offsets): Linear(in_features=256, out_features=256, bias=True)
              (attention_weights): Linear(in_features=256, out_features=128, bias=True)
              (value_proj): Linear(in_features=256, out_features=256, bias=True)
              (output_proj): Linear(in_features=256, out_features=256, bias=True)
            )
            (dropout_cross): Dropout(p=0.1, inplace=False)
            (norm_cross): LayerNorm((256,), eps=1e-05, elementwise_affine=True)
            (attn_intra): MultiheadAttention(
              (out_proj): NonDynamicallyQuantizableLinear(in_features=256, out_features=256, bias=True)
            )
            (circonv): CirConv(
              (conv): Conv1d(256, 256, kernel_size=(9,), stride=(1,))
              (relu): ReLU(inplace=True)
              (norm): BatchNorm1d(256, eps=1e-05, momentum=0.1, affine=True, track_running_stats=True)
            )
            (norm_fuse): LayerNorm((256,), eps=1e-05, elementwise_affine=True)
            (mlp_fuse): Linear(in_features=256, out_features=256, bias=True)
            (drop_path): DropPath(drop_prob=0.100)
            (norm_intra): LayerNorm((256,), eps=1e-05, elementwise_affine=True)
            (attn_inter): MultiheadAttention(
              (out_proj): NonDynamicallyQuantizableLinear(in_features=256, out_features=256, bias=True)
            )
            (dropout_inter): Dropout(p=0.1, inplace=False)
            (norm_inter): LayerNorm((256,), eps=1e-05, elementwise_affine=True)
            (linear1): Linear(in_features=256, out_features=1024, bias=True)
            (dropout3): Dropout(p=0.1, inplace=False)
            (linear2): Linear(in_features=1024, out_features=256, bias=True)
            (dropout4): Dropout(p=0.1, inplace=False)
            (norm3): LayerNorm((256,), eps=1e-05, elementwise_affine=True)
          )
        )
        (ref_point_head): MLP(
          (layers): ModuleList(
            (0): Linear(in_features=256, out_features=256, bias=True)
            (1): Linear(in_features=256, out_features=256, bias=True)
          )
        )
        (ctrl_point_coord): ModuleList(
          (0): MLP(
            (layers): ModuleList(
              (0): Linear(in_features=256, out_features=256, bias=True)
              (1): Linear(in_features=256, out_features=256, bias=True)
              (2): Linear(in_features=256, out_features=2, bias=True)
            )
          )
          (1): MLP(
            (layers): ModuleList(
              (0): Linear(in_features=256, out_features=256, bias=True)
              (1): Linear(in_features=256, out_features=256, bias=True)
              (2): Linear(in_features=256, out_features=2, bias=True)
            )
          )
          (2): MLP(
            (layers): ModuleList(
              (0): Linear(in_features=256, out_features=256, bias=True)
              (1): Linear(in_features=256, out_features=256, bias=True)
              (2): Linear(in_features=256, out_features=2, bias=True)
            )
          )
          (3): MLP(
            (layers): ModuleList(
              (0): Linear(in_features=256, out_features=256, bias=True)
              (1): Linear(in_features=256, out_features=256, bias=True)
              (2): Linear(in_features=256, out_features=2, bias=True)
            )
          )
          (4): MLP(
            (layers): ModuleList(
              (0): Linear(in_features=256, out_features=256, bias=True)
              (1): Linear(in_features=256, out_features=256, bias=True)
              (2): Linear(in_features=256, out_features=2, bias=True)
            )
          )
          (5): MLP(
            (layers): ModuleList(
              (0): Linear(in_features=256, out_features=256, bias=True)
              (1): Linear(in_features=256, out_features=256, bias=True)
              (2): Linear(in_features=256, out_features=2, bias=True)
            )
          )
        )
      )
      (enc_output): Linear(in_features=256, out_features=256, bias=True)
      (enc_output_norm): LayerNorm((256,), eps=1e-05, elementwise_affine=True)
      (bbox_class_embed): Linear(in_features=256, out_features=1, bias=True)
      (bbox_embed): MLP(
        (layers): ModuleList(
          (0): Linear(in_features=256, out_features=256, bias=True)
          (1): Linear(in_features=256, out_features=256, bias=True)
          (2): Linear(in_features=256, out_features=4, bias=True)
        )
      )
    )
    (ctrl_point_class): ModuleList(
      (0): Linear(in_features=256, out_features=1, bias=True)
      (1): Linear(in_features=256, out_features=1, bias=True)
      (2): Linear(in_features=256, out_features=1, bias=True)
      (3): Linear(in_features=256, out_features=1, bias=True)
      (4): Linear(in_features=256, out_features=1, bias=True)
      (5): Linear(in_features=256, out_features=1, bias=True)
    )
    (ctrl_point_coord): ModuleList(
      (0): MLP(
        (layers): ModuleList(
          (0): Linear(in_features=256, out_features=256, bias=True)
          (1): Linear(in_features=256, out_features=256, bias=True)
          (2): Linear(in_features=256, out_features=2, bias=True)
        )
      )
      (1): MLP(
        (layers): ModuleList(
          (0): Linear(in_features=256, out_features=256, bias=True)
          (1): Linear(in_features=256, out_features=256, bias=True)
          (2): Linear(in_features=256, out_features=2, bias=True)
        )
      )
      (2): MLP(
        (layers): ModuleList(
          (0): Linear(in_features=256, out_features=256, bias=True)
          (1): Linear(in_features=256, out_features=256, bias=True)
          (2): Linear(in_features=256, out_features=2, bias=True)
        )
      )
      (3): MLP(
        (layers): ModuleList(
          (0): Linear(in_features=256, out_features=256, bias=True)
          (1): Linear(in_features=256, out_features=256, bias=True)
          (2): Linear(in_features=256, out_features=2, bias=True)
        )
      )
      (4): MLP(
        (layers): ModuleList(
          (0): Linear(in_features=256, out_features=256, bias=True)
          (1): Linear(in_features=256, out_features=256, bias=True)
          (2): Linear(in_features=256, out_features=2, bias=True)
        )
      )
      (5): MLP(
        (layers): ModuleList(
          (0): Linear(in_features=256, out_features=256, bias=True)
          (1): Linear(in_features=256, out_features=256, bias=True)
          (2): Linear(in_features=256, out_features=2, bias=True)
        )
      )
    )
    (bbox_coord): MLP(
      (layers): ModuleList(
        (0): Linear(in_features=256, out_features=256, bias=True)
        (1): Linear(in_features=256, out_features=256, bias=True)
        (2): Linear(in_features=256, out_features=4, bias=True)
      )
    )
    (bbox_class): Linear(in_features=256, out_features=1, bias=True)
    (input_proj): ModuleList(
      (0): Sequential(
        (0): Conv2d(512, 256, kernel_size=(1, 1), stride=(1, 1))
        (1): GroupNorm(32, 256, eps=1e-05, affine=True)
      )
      (1): Sequential(
        (0): Conv2d(1024, 256, kernel_size=(1, 1), stride=(1, 1))
        (1): GroupNorm(32, 256, eps=1e-05, affine=True)
      )
      (2): Sequential(
        (0): Conv2d(2048, 256, kernel_size=(1, 1), stride=(1, 1))
        (1): GroupNorm(32, 256, eps=1e-05, affine=True)
      )
      (3): Sequential(
        (0): Conv2d(2048, 256, kernel_size=(3, 3), stride=(2, 2), padding=(1, 1))
        (1): GroupNorm(32, 256, eps=1e-05, affine=True)
      )
    )
  )
  (parseq): PARSeq(
    (encoder): Encoder(
      (patch_embed): PatchEmbed(
        (proj): Conv2d(3, 384, kernel_size=(4, 8), stride=(4, 8))
        (norm): Identity()
      )
      (pos_drop): Dropout(p=0.0, inplace=False)
      (patch_drop): Identity()
      (norm_pre): Identity()
      (blocks): Sequential(
        (0): Block(
          (norm1): LayerNorm((384,), eps=1e-06, elementwise_affine=True)
          (attn): Attention(
            (qkv): Linear(in_features=384, out_features=1152, bias=True)
            (q_norm): Identity()
            (k_norm): Identity()
            (attn_drop): Dropout(p=0.0, inplace=False)
            (proj): Linear(in_features=384, out_features=384, bias=True)
            (proj_drop): Dropout(p=0.0, inplace=False)
          )
          (ls1): Identity()
          (drop_path1): Identity()
          (norm2): LayerNorm((384,), eps=1e-06, elementwise_affine=True)
          (mlp): Mlp(
            (fc1): Linear(in_features=384, out_features=1536, bias=True)
            (act): GELU()
            (drop1): Dropout(p=0.0, inplace=False)
            (norm): Identity()
            (fc2): Linear(in_features=1536, out_features=384, bias=True)
            (drop2): Dropout(p=0.0, inplace=False)
          )
          (ls2): Identity()
          (drop_path2): Identity()
        )
        (1): Block(
          (norm1): LayerNorm((384,), eps=1e-06, elementwise_affine=True)
          (attn): Attention(
            (qkv): Linear(in_features=384, out_features=1152, bias=True)
            (q_norm): Identity()
            (k_norm): Identity()
            (attn_drop): Dropout(p=0.0, inplace=False)
            (proj): Linear(in_features=384, out_features=384, bias=True)
            (proj_drop): Dropout(p=0.0, inplace=False)
          )
          (ls1): Identity()
          (drop_path1): Identity()
          (norm2): LayerNorm((384,), eps=1e-06, elementwise_affine=True)
          (mlp): Mlp(
            (fc1): Linear(in_features=384, out_features=1536, bias=True)
            (act): GELU()
            (drop1): Dropout(p=0.0, inplace=False)
            (norm): Identity()
            (fc2): Linear(in_features=1536, out_features=384, bias=True)
            (drop2): Dropout(p=0.0, inplace=False)
          )
          (ls2): Identity()
          (drop_path2): Identity()
        )
        (2): Block(
          (norm1): LayerNorm((384,), eps=1e-06, elementwise_affine=True)
          (attn): Attention(
            (qkv): Linear(in_features=384, out_features=1152, bias=True)
            (q_norm): Identity()
            (k_norm): Identity()
            (attn_drop): Dropout(p=0.0, inplace=False)
            (proj): Linear(in_features=384, out_features=384, bias=True)
            (proj_drop): Dropout(p=0.0, inplace=False)
          )
          (ls1): Identity()
          (drop_path1): Identity()
          (norm2): LayerNorm((384,), eps=1e-06, elementwise_affine=True)
          (mlp): Mlp(
            (fc1): Linear(in_features=384, out_features=1536, bias=True)
            (act): GELU()
            (drop1): Dropout(p=0.0, inplace=False)
            (norm): Identity()
            (fc2): Linear(in_features=1536, out_features=384, bias=True)
            (drop2): Dropout(p=0.0, inplace=False)
          )
          (ls2): Identity()
          (drop_path2): Identity()
        )
        (3): Block(
          (norm1): LayerNorm((384,), eps=1e-06, elementwise_affine=True)
          (attn): Attention(
            (qkv): Linear(in_features=384, out_features=1152, bias=True)
            (q_norm): Identity()
            (k_norm): Identity()
            (attn_drop): Dropout(p=0.0, inplace=False)
            (proj): Linear(in_features=384, out_features=384, bias=True)
            (proj_drop): Dropout(p=0.0, inplace=False)
          )
          (ls1): Identity()
          (drop_path1): Identity()
          (norm2): LayerNorm((384,), eps=1e-06, elementwise_affine=True)
          (mlp): Mlp(
            (fc1): Linear(in_features=384, out_features=1536, bias=True)
            (act): GELU()
            (drop1): Dropout(p=0.0, inplace=False)
            (norm): Identity()
            (fc2): Linear(in_features=1536, out_features=384, bias=True)
            (drop2): Dropout(p=0.0, inplace=False)
          )
          (ls2): Identity()
          (drop_path2): Identity()
        )
        (4): Block(
          (norm1): LayerNorm((384,), eps=1e-06, elementwise_affine=True)
          (attn): Attention(
            (qkv): Linear(in_features=384, out_features=1152, bias=True)
            (q_norm): Identity()
            (k_norm): Identity()
            (attn_drop): Dropout(p=0.0, inplace=False)
            (proj): Linear(in_features=384, out_features=384, bias=True)
            (proj_drop): Dropout(p=0.0, inplace=False)
          )
          (ls1): Identity()
          (drop_path1): Identity()
          (norm2): LayerNorm((384,), eps=1e-06, elementwise_affine=True)
          (mlp): Mlp(
            (fc1): Linear(in_features=384, out_features=1536, bias=True)
            (act): GELU()
            (drop1): Dropout(p=0.0, inplace=False)
            (norm): Identity()
            (fc2): Linear(in_features=1536, out_features=384, bias=True)
            (drop2): Dropout(p=0.0, inplace=False)
          )
          (ls2): Identity()
          (drop_path2): Identity()
        )
        (5): Block(
          (norm1): LayerNorm((384,), eps=1e-06, elementwise_affine=True)
          (attn): Attention(
            (qkv): Linear(in_features=384, out_features=1152, bias=True)
            (q_norm): Identity()
            (k_norm): Identity()
            (attn_drop): Dropout(p=0.0, inplace=False)
            (proj): Linear(in_features=384, out_features=384, bias=True)
            (proj_drop): Dropout(p=0.0, inplace=False)
          )
          (ls1): Identity()
          (drop_path1): Identity()
          (norm2): LayerNorm((384,), eps=1e-06, elementwise_affine=True)
          (mlp): Mlp(
            (fc1): Linear(in_features=384, out_features=1536, bias=True)
            (act): GELU()
            (drop1): Dropout(p=0.0, inplace=False)
            (norm): Identity()
            (fc2): Linear(in_features=1536, out_features=384, bias=True)
            (drop2): Dropout(p=0.0, inplace=False)
          )
          (ls2): Identity()
          (drop_path2): Identity()
        )
        (6): Block(
          (norm1): LayerNorm((384,), eps=1e-06, elementwise_affine=True)
          (attn): Attention(
            (qkv): Linear(in_features=384, out_features=1152, bias=True)
            (q_norm): Identity()
            (k_norm): Identity()
            (attn_drop): Dropout(p=0.0, inplace=False)
            (proj): Linear(in_features=384, out_features=384, bias=True)
            (proj_drop): Dropout(p=0.0, inplace=False)
          )
          (ls1): Identity()
          (drop_path1): Identity()
          (norm2): LayerNorm((384,), eps=1e-06, elementwise_affine=True)
          (mlp): Mlp(
            (fc1): Linear(in_features=384, out_features=1536, bias=True)
            (act): GELU()
            (drop1): Dropout(p=0.0, inplace=False)
            (norm): Identity()
            (fc2): Linear(in_features=1536, out_features=384, bias=True)
            (drop2): Dropout(p=0.0, inplace=False)
          )
          (ls2): Identity()
          (drop_path2): Identity()
        )
        (7): Block(
          (norm1): LayerNorm((384,), eps=1e-06, elementwise_affine=True)
          (attn): Attention(
            (qkv): Linear(in_features=384, out_features=1152, bias=True)
            (q_norm): Identity()
            (k_norm): Identity()
            (attn_drop): Dropout(p=0.0, inplace=False)
            (proj): Linear(in_features=384, out_features=384, bias=True)
            (proj_drop): Dropout(p=0.0, inplace=False)
          )
          (ls1): Identity()
          (drop_path1): Identity()
          (norm2): LayerNorm((384,), eps=1e-06, elementwise_affine=True)
          (mlp): Mlp(
            (fc1): Linear(in_features=384, out_features=1536, bias=True)
            (act): GELU()
            (drop1): Dropout(p=0.0, inplace=False)
            (norm): Identity()
            (fc2): Linear(in_features=1536, out_features=384, bias=True)
            (drop2): Dropout(p=0.0, inplace=False)
          )
          (ls2): Identity()
          (drop_path2): Identity()
        )
        (8): Block(
          (norm1): LayerNorm((384,), eps=1e-06, elementwise_affine=True)
          (attn): Attention(
            (qkv): Linear(in_features=384, out_features=1152, bias=True)
            (q_norm): Identity()
            (k_norm): Identity()
            (attn_drop): Dropout(p=0.0, inplace=False)
            (proj): Linear(in_features=384, out_features=384, bias=True)
            (proj_drop): Dropout(p=0.0, inplace=False)
          )
          (ls1): Identity()
          (drop_path1): Identity()
          (norm2): LayerNorm((384,), eps=1e-06, elementwise_affine=True)
          (mlp): Mlp(
            (fc1): Linear(in_features=384, out_features=1536, bias=True)
            (act): GELU()
            (drop1): Dropout(p=0.0, inplace=False)
            (norm): Identity()
            (fc2): Linear(in_features=1536, out_features=384, bias=True)
            (drop2): Dropout(p=0.0, inplace=False)
          )
          (ls2): Identity()
          (drop_path2): Identity()
        )
        (9): Block(
          (norm1): LayerNorm((384,), eps=1e-06, elementwise_affine=True)
          (attn): Attention(
            (qkv): Linear(in_features=384, out_features=1152, bias=True)
            (q_norm): Identity()
            (k_norm): Identity()
            (attn_drop): Dropout(p=0.0, inplace=False)
            (proj): Linear(in_features=384, out_features=384, bias=True)
            (proj_drop): Dropout(p=0.0, inplace=False)
          )
          (ls1): Identity()
          (drop_path1): Identity()
          (norm2): LayerNorm((384,), eps=1e-06, elementwise_affine=True)
          (mlp): Mlp(
            (fc1): Linear(in_features=384, out_features=1536, bias=True)
            (act): GELU()
            (drop1): Dropout(p=0.0, inplace=False)
            (norm): Identity()
            (fc2): Linear(in_features=1536, out_features=384, bias=True)
            (drop2): Dropout(p=0.0, inplace=False)
          )
          (ls2): Identity()
          (drop_path2): Identity()
        )
        (10): Block(
          (norm1): LayerNorm((384,), eps=1e-06, elementwise_affine=True)
          (attn): Attention(
            (qkv): Linear(in_features=384, out_features=1152, bias=True)
            (q_norm): Identity()
            (k_norm): Identity()
            (attn_drop): Dropout(p=0.0, inplace=False)
            (proj): Linear(in_features=384, out_features=384, bias=True)
            (proj_drop): Dropout(p=0.0, inplace=False)
          )
          (ls1): Identity()
          (drop_path1): Identity()
          (norm2): LayerNorm((384,), eps=1e-06, elementwise_affine=True)
          (mlp): Mlp(
            (fc1): Linear(in_features=384, out_features=1536, bias=True)
            (act): GELU()
            (drop1): Dropout(p=0.0, inplace=False)
            (norm): Identity()
            (fc2): Linear(in_features=1536, out_features=384, bias=True)
            (drop2): Dropout(p=0.0, inplace=False)
          )
          (ls2): Identity()
          (drop_path2): Identity()
        )
        (11): Block(
          (norm1): LayerNorm((384,), eps=1e-06, elementwise_affine=True)
          (attn): Attention(
            (qkv): Linear(in_features=384, out_features=1152, bias=True)
            (q_norm): Identity()
            (k_norm): Identity()
            (attn_drop): Dropout(p=0.0, inplace=False)
            (proj): Linear(in_features=384, out_features=384, bias=True)
            (proj_drop): Dropout(p=0.0, inplace=False)
          )
          (ls1): Identity()
          (drop_path1): Identity()
          (norm2): LayerNorm((384,), eps=1e-06, elementwise_affine=True)
          (mlp): Mlp(
            (fc1): Linear(in_features=384, out_features=1536, bias=True)
            (act): GELU()
            (drop1): Dropout(p=0.0, inplace=False)
            (norm): Identity()
            (fc2): Linear(in_features=1536, out_features=384, bias=True)
            (drop2): Dropout(p=0.0, inplace=False)
          )
          (ls2): Identity()
          (drop_path2): Identity()
        )
      )
      (norm): LayerNorm((384,), eps=1e-06, elementwise_affine=True)
      (fc_norm): Identity()
      (head_drop): Dropout(p=0.0, inplace=False)
      (head): Identity()
    )
    (decoder): Decoder(
      (layers): ModuleList(
        (0): DecoderLayer(
          (self_attn): MultiheadAttention(
            (out_proj): NonDynamicallyQuantizableLinear(in_features=384, out_features=384, bias=True)
          )
          (cross_attn): MultiheadAttention(
            (out_proj): NonDynamicallyQuantizableLinear(in_features=384, out_features=384, bias=True)
          )
          (linear1): Linear(in_features=384, out_features=1536, bias=True)
          (dropout): Dropout(p=0.1, inplace=False)
          (linear2): Linear(in_features=1536, out_features=384, bias=True)
          (norm1): LayerNorm((384,), eps=1e-05, elementwise_affine=True)
          (norm2): LayerNorm((384,), eps=1e-05, elementwise_affine=True)
          (norm_q): LayerNorm((384,), eps=1e-05, elementwise_affine=True)
          (norm_c): LayerNorm((384,), eps=1e-05, elementwise_affine=True)
          (dropout1): Dropout(p=0.1, inplace=False)
          (dropout2): Dropout(p=0.1, inplace=False)
          (dropout3): Dropout(p=0.1, inplace=False)
        )
      )
      (norm): LayerNorm((384,), eps=1e-05, elementwise_affine=True)
    )
    (head): Linear(in_features=384, out_features=95, bias=True)
    (text_embed): TokenEmbedding(
      (embedding): Embedding(97, 384)
    )
    (dropout): Dropout(p=0.1, inplace=False)
  )
  (bezier_model): Model(
    (bezier_align): BezierAlign(output_size=(256, 1024), spatial_scale=1.0, sampling_ratio=1, aligned=True)
  )
  (criterion): SetCriterion(
    (enc_matcher): BoxHungarianMatcher()
    (dec_matcher): CtrlPointHungarianMatcher()
  )
)
[08/17 00:55:16] fvcore.common.checkpoint INFO: [Checkpointer] Loading from ckpts/art_final.pth ...
…
